models/old.pth (torch, 75063 bytes, 17 tensors)

temporal_conv.weight f4 [16, 1, 1, 25]
0.18065289 0.16414838 -0.04298406 0.17815094 -0.059200738 0.016110232 -0.10497762 0.094075285
0.13979924 -0.170471 0.1290897 0.032723334 0.1270223 0.01931995 0.05412596 -0.033680417
0.1275576 0.011451568 -0.10608538 0.042399902 -0.101116076 -0.052172784 -0.108942546 0.08896081
-0.22691745 -0.09615703 -0.03176868 -0.11075534 0.044608798 -0.19447523 0.1917223 -0.156378
0.17117436 0.040789615 -0.053884577 0.12757397 0.06414841 0.18400006 0.009441563 -0.048805993
0.044522423 -0.064650446 0.08951932 0.12725872 0.13223897 -0.13311045 0.08221897 0.021942945
0.1134005 -0.12086226 -0.2215147 -0.08153371 -0.18013653 0.13505827 0.022829412 0.043800235
0.024964143 -0.027142165 0.16806929 -0.13712925 0.026205761 -0.11961399 0.08742576 -0.04326039
0.08825129 -0.028464902 0.18791448 -0.12429095 -0.08447223 -0.08928186 0.19171004 0.04906978
0.17127372 -0.18722245 -0.22705808 -0.18595609 -0.15422557 0.046909712 0.063778676 0.19271429
-0.11485176 -0.14398864 0.11084642 -0.07751072 0.113195956 -0.038639154 0.12443302 -0.12765077
-0.073006906 0.095998585 0.058098845 -0.045890115 0.1418868 0.16182417 -0.12230482 -0.090264715
0.2271981 -0.017568374 -0.041527506 -0.16237986 -0.13321811 0.11547807 0.015915906 -0.1287816
0.068683386 -0.069830395 -0.10548556 -0.035010703 -0.10021758 -0.0544189 0.2630346 0.10629537
0.12596068 -0.14583352 -0.07285962 0.0010682768 0.103840716 -0.1300719 -0.018562356 -0.067299716
0.05162747 -0.073709846 0.018523533 -0.14939106 -0.15919614 -0.0869343 -0.04751647 -0.14441119
0.17369851 -0.0554129 0.1663932 0.06193446 -0.18751636 0.11261385 -0.06749447 -0.066063255
-0.14783111 -0.20702529 0.05763629 -0.045755967 0.08499156 -0.15893105 0.14950243 -0.1502239
-0.030267887 0.058720544 0.14953336 0.1834386 0.21969421 -0.13257733 0.007013359 -0.083550625
-0.060687657 -0.13200578 0.17673361 -0.12895547 0.07753537 0.12093535 0.06957301 -0.068144485
0.19210026 0.08999436 0.058621563 -0.13257144 0.105653726 -0.0023926732 -0.07402857 0.19471374
0.06585368 -0.092667766 -0.12533835 -0.0346787 0.08499877 -0.088255 -0.15276216 -0.059926346
-0.14598003 0.10380082 0.16117352 -0.1874982 0.033204105 0.1314067 0.04715503 -0.08603306
0.07617542 0.11659027 0.063823916 -0.04160436 -0.028750962 0.051206436 -0.03687072 -0.05244042
0.14471482 0.12744288 -0.042013712 -0.064824164 -0.019674238 -0.022033706 0.033537745 0.07214604
-0.20115638 -0.07714614 0.18349998 0.1024081 0.014946402 -0.092920475 -0.092490494 -0.13774289
-0.028380854 0.11116307 0.16061376 0.12992379 -0.13775645 -0.09188949 -0.0007571305 0.23255585
0.052670103 -0.0477151 0.057436205 -0.06974834 -0.149151 0.17290351 -0.09846148 -0.035028677
-0.1778761 0.17568327 0.19592397 0.123805225 -0.113844395 -0.17613927 -0.14100516 0.16785774
0.079866715 0.13231005 0.076416224 0.035237096 -0.015772823 -0.18061264 -0.16801012 -0.16573554
0.12526046 -0.08731356 -0.007342128 -0.06912667 0.020471208 -0.063253574 -0.07072183 0.13135032
-0.027178613 0.15937978 -0.06894603 -0.14663161 -0.0026851553 -0.07101288 -0.04578603 -0.15431674
00000000: 12fd 383e 8316 283e 0e10 30bd 336d 363e
00000010: 797c 72bd 9bf9 833c 82fe d6bd 8baa c03d
00000020: 8827 0f3e f38f 2ebe 1730 043e e708 063d
00000030: 2212 023e df44 9e3c 2fb3 5d3d 7af4 09bd
00000040: 769e 023e 5c9f 3b3c 4b43 d9bd 85ab 2d3d
00000050: f215 cfbd 21b3 55bd 451d dfbd 1631 b63d
00000060: 0c5d 68be faed c4bd e01f 02bd b2d3 e2bd
00000070: b7b7 363d 8424 47be da52 443e 8e21 20be
00000080: 5548 2f3e 0313 273d 13b6 5cbd c0a2 023e
00000090: 3e60 833d 836a 3c3e c9b0 1a3c cbe8 47bd
000000a0: 255d 363d 7467 84bd e855 b73d 1c50 023e
000000b0: a769 073e 1b4e 08be 6b62 a83d b1c1 b33c
000000c0: 853e e83d a286 f7bd c0d4 62be 25fb a6bd
000000d0: b675 38be b74c 0a3e bf04 bb3c e067 333d
000000e0: 9a81 cc3c 3f59 debc 5b1a 2c3e 9c6b 0cbe
000000f0: 77ad d63c 2ef8 f4bd 470c b33d cf31 31bd
00000100: 18bd b43d 3a2f e9bc a76c 403e 418c febd
00000110: c7ff acbd 68d9 b6bd a34f 443e 65fd 483d
00000120: 6162 2f3e 3eb7 3fbe ea81 68be 466b 3ebe
00000130: 4fed 1dbe 6624 403d 659e 823d e556 453e
00000140: 6637 ebbd c271 13be 7303 e33d f1bd 9ebd
00000150: 48d3 e73d 1744 1ebd bdd6 fe3d e2b6 02be
00000160: a584 95bd e89a c43d 0ef9 6d3d 46f7 3bbd
00000170: c64a 113e 3cb5 253e f37a fabd b5dc b8bd
00000180: 9ea6 683e 8deb 8fbc bf18 2abd e846 26be
00000190: 546a 08be c47f ec3d 1362 823c 53df 03be
000001a0: e0a9 8c3d 3d03 8fbd d008 d8bd 6267 0fbd
000001b0: e03e cdbd 5ae6 5ebd 79ac 863e 63b1 d93d
000001c0: d6fb 003e 6255 15be 6d37 95bd 6c05 8c3a
000001d0: 71aa d43d 9131 05be 1510 98bc 6fd4 89bd
000001e0: 5377 533d 30f5 96bd aabe 973c f8f9 18be
000001f0: 5004 23be 9c0a b2bd a1a0 42bd 87e0 13be
00000200: 06de 313e a3f8 62bd fb62 2a3e fdae 7d3d
00000210: 4a04 40be 17a2 e63d 8a3a 8abd 2c4c 87bd
00000220: 0a61 17be 70fe 53be 0814 6c3d 9c6a 3bbd
00000230: 0e10 ae3d d2be 22be 2a17 193e 4bd4 19be
00000240: 5cf4 f7bc f484 703d 461f 193e 54d7 3b3e
00000250: 85f7 603e 5ac2 07be 52d0 e53b 971c abbd
00000260: 9f93 78bd 862c 07be a8f9 343e e70c 04be
00000270: ddca 9e3d f4ac f73d 4b7c 8e3d 568f 8bbd
00000280: eeb5 443e f74e b83d 2a1d 703d cfc0 07be
00000290: fb60 d83d 65ce 1cbb 4a9c 97bd 0a63 473e
000002a0: 4bde 863d 99c8 bdbd b258 00be 410b 0ebd
000002b0: d613 ae3d 0abf b4bd af6d 1cbe 5475 75bd
000002c0: ca7b 15be 8695 d43d ac0a 253e 87ff 3fbe
000002d0: 0701 083d 7a8f 063e a225 413d 1a32 b0bd
000002e0: dc01 9c3d e1c6 ee3d 1db6 823d 5569 2abd
000002f0: 2387 ebbc d7bd 513d c105 17bd c4cb 56bd
00000300: 1f30 143e 6380 023e 9216 2cbd 88c2 84bd
00000310: de2b a1bc 0880 b4bc e05e 093d 4ec1 933d
00000320: f0fb 4dbe ccfe 9dbd 6be7 3b3e 57bb d13d
00000330: c1e1 743c 174d bebd a86b bdbd 790c 0dbe
00000340: f77e e8bc 77a9 e33d ef77 243e be0a 053e
00000350: 0710 0dbe 8f30 bcbd 2b7a 46ba 1f23 6e3e
00000360: 9bbc 573d e970 43bd 3a42 6b3d 38d8 8ebd
00000370: 0abb 18be 9e0d 313e 2ca6 c9bd 3b7a 0fbd
00000380: 2725 36be 51e6 333e 4ba0 483e 988d fd3d
00000390: 4027 e9bd da5d 34be a863 10be e6e2 2b3e
000003a0: 2991 a33d 497c 073e 1c80 9c3d c654 103d
000003b0: 0236 81bc 85f2 38be d80a 2cbe 94b6 29be
000003c0: 4744 003e 74d1 b2bd 3c96 f0bb 4992 8dbd
000003d0: 3cb3 a73c 178b 81bd 9bd6 90bd b380 063e
000003e0: afa5 debc 7434 233e 9433 8dbd 9926 16be
000003f0: 6ef9 2fbb 336f 91bd 228a 3bbd 3505 1ebe

temporal_bn.weight f4 [16]
1.0833081 1.0290121 1.065339 1.0249126 0.9378947 1.0150911 1.0266359 1.0157747
1.0548021 0.96041954 1.0542926 0.9911985 1.0248646 0.9840875 1.0157517 1.0196769
00000000: d7a9 8a3f abb6 833f 075d 883f 5630 833f
00000010: de19 703f 81ee 813f ce68 833f e804 823f
00000020: c103 873f 0ede 753f 0ff3 863f 2fbf 7d3f
00000030: c32e 833f 29ed 7b3f 2704 823f c684 823f

temporal_bn.bias f4 [16]
0.0140665 0.0023764127 -0.0008399797 -8.150747e-05 -0.003074552 0.006535409 -0.0005855304 0.006606976
-0.0017571305 -0.005012681 -0.0047718734 0.001955796 -0.0017176142 -0.0006841918 0.016596584 -0.0018006195
00000000: 2d77 663c 97bd 1b3b 1532 5cba fdee aab8
00000010: 6c7e 49bb fc26 d63b 487e 19ba 557f d83b
00000020: 844f e6ba 6a41 a4bb 605d 9cbb d02c 003b
00000030: 9221 e1ba 565b 33ba 8ff5 873c c402 ecba

temporal_bn.running_mean f4 [16]
29233.42 33075.082 -22544.168 -2404.2754 -38222.27 -9933.983 7671.93 27141.957
-13358.087 6504.728 38645.19 -25354.422 21309.86 -46620.227 4279.5938 -8187.022
00000000: d762 e446 1533 0147 5620 b0c6 6844 16c5
00000010: 454e 15c7 ef37 1bc6 71bf ef45 ea0b d446
00000020: 59b8 50c6 d345 cb45 31f5 1647 d814 c6c6
00000030: b87b a646 3a1c 36c7 c0bc 8545 2dd8 ffc5

temporal_bn.running_var f4 [16]
1.5209675e+10 1.5195397e+10 1.6363065e+10 1.2151565e+10 1.6553137e+10 1.5266959e+10 1.1014216e+10 9.684437e+09
1.3614798e+10 1.4191416e+10 2.168191e+10 1.3511493e+10 1.4327434e+10 2.0404453e+10 1.4863857e+10 1.0951652e+10
00000000: 4ea4 6250 d76d 6250 24d4 7350 8b12 3550
00000010: 35a9 7650 d47e 6350 e61f 2450 324f 1050
00000020: 55e0 4a50 f577 5350 f68a a150 4156 4950
00000030: d37e 5550 6806 9850 1d7d 5d50 3d31 2350

spatial_conv.weight f4 [32, 1, 8, 1]
-0.15407012 0.16963579 0.006825727 0.0184726 -0.16372341 -0.34529668 -0.36550224 -0.17892157
-0.23601685 0.10123523 -0.086117245 -0.09734 0.36104974 0.12830047 0.28679547 -0.13484938
-0.17933148 0.059795123 -0.2117107 -0.2479178 -0.06651131 -0.19214891 -0.260099 0.1511136
0.24009162 -0.033395518 -0.04522461 -0.32193893 -0.21098347 0.029986424 0.09771998 -0.1138982
-0.21986942 0.14873329 -0.28072393 0.23540178 -0.09270537 0.021078946 -0.04897343 0.021872057
-0.1387531 0.23774865 -0.0038094004 0.29143953 0.3199057 -0.22345255 -0.28129792 0.2166581
0.22538477 -0.32477218 -0.06656798 -0.27163598 -0.32362512 0.09357216 0.04754643 0.02073427
-0.15058121 0.25995708 0.06449177 -0.18452226 -0.03622386 0.07666126 0.085998006 -0.33272618
0.07386112 -0.22388002 -0.3012741 -0.14611152 0.37555802 0.3172895 0.30068564 0.19440714
0.20058912 -0.12429817 -0.14253852 0.19886288 -0.20800161 -0.27684727 -0.17285383 0.014445668
0.095157914 -0.189535 -0.23073466 0.053029608 -0.17969553 -0.20120601 0.22806795 -0.046076447
0.4104042 0.45217827 0.16367552 0.043277185 0.016198926 0.082268216 -0.0698844 -0.008754344
0.056719545 0.26503953 -0.13003926 -0.1011101 -0.03591024 -0.196654 0.08986492 0.26144496
0.17092928 0.084316395 -0.2985575 -0.14494829 -0.014971239 -0.07080612 0.06865748 -0.3158755
0.056422293 -0.35677484 -0.24049023 -0.23333555 0.26014346 -0.42379975 0.22401308 -0.08161523
0.023062041 0.2828886 -0.059339017 0.14974865 0.28824288 -0.2942447 0.18453519 0.09542811
0.11397849 0.05747411 0.102662705 -0.19790527 -0.08242215 0.291019 0.17934781 -0.06207028
-0.38843155 -0.038306627 -0.28928334 0.26480418 -0.17811386 0.0064158705 -0.039570443 0.05253731
0.39512733 0.08403147 0.17383042 0.2909973 0.31071663 -0.14859639 -0.06151934 0.20339565
-0.13448532 0.14785777 -0.063972175 -0.2636922 0.12775613 0.060383096 0.12011353 0.33692828
0.21134882 0.2804633 -0.0064773937 -0.2619873 -0.28237462 -0.29734653 -0.3073705 -0.24180923
-0.37749225 -0.39697447 -0.20863494 -0.34750432 -0.26133713 0.04676978 0.27455217 -0.19814596
-0.16549712 0.13225284 -0.20227721 -0.1279251 0.25277108 -0.3269513 -0.030904964 0.25805953
0.002924985 0.05104008 -0.22596213 0.010040292 0.058420945 0.10063882 0.09929475 0.2773154
-0.36653468 -0.07780176 -0.23651117 -0.19749579 -0.031167407 -0.33164456 0.2643893 0.008459219
-0.2665188 0.105343305 -0.3839042 -0.0871467 -0.057447653 -0.31102687 -0.15457326 -0.09107849
0.28984812 0.35190246 0.23277617 -0.19915897 -0.21715033 0.33517653 0.09213574 -0.006566081
-0.020482363 -0.34314942 -0.09346072 0.35857219 -0.06813712 -0.0017896785 -0.3104489 -0.22378412
-0.07637376 -0.27922964 -0.0028362898 0.08860576 -0.42173833 0.09665989 -0.3188963 -0.23620336
0.057506807 0.21471168 -0.030635959 -0.12661235 -0.3771222 -0.18314429 -0.37438884 -0.14828582
0.1099932 -0.26971138 0.3316632 0.22071257 -0.33204046 -0.08437651 0.15396771 -0.04518378
0.013924268 -0.08940341 0.23715588 -0.25044107 0.24427181 0.0885805 0.041440323 0.26479238
00000000: 8fc4 1dbe 01b5 2d3e 59aa df3b da53 973c
00000010: 1ca7 27be baca b0be 1c23 bbbe 3737 37be
00000020: 67ae 71be 6b54 cf3d 3d5e b0bd 325a c7bd
00000030: 83db b83e 3361 033e dbd6 923e f515 0abe
00000040: aca2 37be bbeb 743d b1ca 58be 2ade 7dbe
00000050: 1537 88bd afc2 44be b22b 85be 86bd 1a3e
00000060: 94da 753e bdc9 08bd 713d 39bd 2ed5 a4be
00000070: 0d0c 58be 17a6 f53c 6a21 c83d 7643 e9bd
00000080: 7325 61be 8a4d 183e 0cbb 8fbe 2a0d 713e
00000090: 50dc bdbd c1ad ac3c 5d98 48bd 072d b33c
000000a0: 4b15 0ebe 6274 733e 22a7 79bb 9037 953e
000000b0: aeca a33e bfd0 64be 4806 90be 9fdb 5d3e
000000c0: 44cb 663e 8a48 a6be cb54 88bd df13 8bbe
000000d0: 31b2 a5be c3a2 bf3d 0cc0 423d eada a93c
000000e0: f631 1abe 1819 853e 4314 843d 67f3 3cbe
000000f0: 785f 14bd 9400 9d3d b91f b03d 165b aabe
00000100: 8044 973d ce40 65be 9940 9abe 429e 15be
00000110: 2449 c03e c573 a23e 78f3 993e aa12 473e
00000120: 3c67 4d3e 0a90 febd 9ef5 11be b6a2 4b3e
00000130: 60fe 54be edbe 8dbe 9800 31be 86ad 6c3c
00000140: 27e2 c23d 7715 42be b545 6cbe 9335 593d
00000150: 1b02 38be f308 4ebe a58a 693e a8ba 3cbd
00000160: 8020 d23e e983 e73e 8e9a 273e 6b43 313d
00000170: 9cb3 843c 3d7c a83d 8d1f 8fbd 616e 0fbc
00000180: c152 683d 43b3 873e 0329 05be d012 cfbd
00000190: 9e16 13bd ab5f 49be 190b b83d 1ddc 853e
000001a0: 1608 2f3e 13ae ac3d 87dc 98be 536d 14be
000001b0: ed49 75bc cd02 91bd 4b9c 8c3d 6fba a1be
000001c0: 101b 673d 31ab b6be 1243 76be 84ef 6ebe
000001d0: 8631 853e 48fc d8be af63 653e e325 a7bd
000001e0: 9bec bc3c c6d6 903e 780d 73bd b657 193e
000001f0: 9294 933e 3ea7 96be cbf6 3c3e d06f c33d
00000200: 8e6d e93d f969 6b3d d340 d23d aea7 4abe
00000210: f2cc a8bd 7100 953e f4a6 373e 683d 7ebd
00000220: 80e0 c6be 69e7 1cbd f21c 94be 6a94 873e
00000230: 7b63 36be 393c d23b 9e14 22bd 5d31 573d
00000240: 214e ca3e b118 ac3d 9a00 323e 99fd 943e
00000250: 4016 9f3e a729 18be b4fb 7bbd f346 503e
00000260: 85b6 09be 0768 173e d803 83bd aa02 87be
00000270: 81d2 023e 4454 773d 15fe f53d dd81 ac3e
00000280: d36b 583e e398 8f3e 5140 d4bb 3323 86be
00000290: 6893 90be ce3d 98be ab5f 9dbe d79c 77be
000002a0: aa46 c1be 3d40 cbbe 66a4 55be 16ec b1be
000002b0: fbcd 85be ab91 3f3d 1a92 8c3e c6e6 4abe
000002c0: 1478 29be 4a6d 073e c221 4fbe ccfe 02be
000002d0: 366b 813e 2966 a7be 682c fdbc 6120 843e
000002e0: 1bb1 3f3b 670f 513d 9e62 67be 0980 243c
000002f0: cd4a 6f3d ba1b ce3d 0c5b cb3d 49fc 8d3e
00000300: 6faa bbbe 8756 9fbd fc2f 72be 563c 4abe
00000310: ca52 ffbc 51cd a9be 095e 873e 8998 0a3c
00000320: 2775 88be 3bbe d73d 178f c4be f879 b2bd
00000330: 3b4e 6bbd ea3e 9fbe 7448 1ebe 5c87 babd
00000340: f966 943e 8f2c b43e e05c 6e3e 54f0 4bbe
00000350: a85c 5ebe 429c ab3e aab1 bc3d 4828 d7bb
00000360: a1ca a7bc 48b1 afbe 5568 bfbd c696 b73e
00000370: 798b 8bbd a593 eaba 29f3 9ebe aa27 65be
00000380: d969 9cbd 30f7 8ebe 0ce1 39bb f076 b53d
00000390: 16ee d7be 9ff5 c53d 6046 a3be 4bdf 71be
000003a0: 428c 6b3d 61dd 5b3e 43f8 fabc aba6 01be
000003b0: 2916 c1be 2d8a 3bbe e5af bfbe 3dd8 17be
000003c0: 1d44 e13d 9c17 8abe c2cf a93e 7a02 623e
000003d0: 3501 aabe 97cd acbd b6a9 1d3e a112 39bd
000003e0: 9d22 643c 2319 b7bd fed8 723e d039 80be
000003f0: 6422 7a3e b169 b53d 54bd 293d de92 873e

spatial_bn.weight f4 [32]
1.1100696 1.0114948 0.9928218 1.0295976 1.0347277 1.0732164 0.9773405 1.0402596
0.91674924 0.94711107 0.97210145 1.0311817 1.0257907 1.0309824 1.0554174 1.0210365
1.056496 1.0294191 1.0062308 0.96220756 1.0486728 1.0334932 0.9802836 0.99154663
1.0187538 1.0307957 1.0162889 0.9759722 1.0242547 1.0372326 1.0517697 1.0017104
00000000: c316 8e3f a978 813f 9229 7e3f dbc9 833f
00000010: f571 843f 285f 893f fd32 7a3f 3a27 853f
00000020: 14b0 6a3f df75 723f a4db 783f c3fd 833f
00000030: 1c4d 833f 3bf7 833f eb17 873f 53b1 823f
00000040: 433b 873f 01c4 833f 2ccc 803f 3c53 763f
00000050: e93a 863f 8149 843f def3 7a3f 00d6 7d3f
00000060: 8666 823f 1df1 833f c115 823f 50d9 793f
00000070: c71a 833f 0ac4 843f 64a0 863f 0c38 803f

spatial_bn.bias f4 [32]
0.04669043 0.01849644 0.044673365 0.07491996 0.05114963 0.043453448 0.05301327 0.06276847
0.035823572 0.04380613 -0.027187672 0.060799528 0.053332202 0.05275505 0.045627996 0.043350995
0.077202894 0.05789095 0.06504004 0.020082848 0.0640133 0.048466858 0.051950198 0.04775911
0.06247707 0.06455272 0.06241148 0.06355632 -0.0003139782 -0.051633213 0.051770136 0.022121852
00000000: 773e 3f3d d985 973c 6bfb 363d a36f 993d
00000010: 4682 513d 3efc 313d 7124 593d c18c 803d
00000020: bdbb 123d 0e6e 333d aeb8 debc ed08 793d
00000030: de72 5a3d ae15 583d 6ce4 3a3d d090 313d
00000040: 8d1c 9e3d 101f 6d3d b633 853d c984 a43c
00000050: 6819 833d 2f85 463d bbc9 543d 0e9f 433d
00000060: f5e7 7f3d 3734 843d 2ea3 7f3d d129 823d
00000070: 719d a4b9 597d 53bd ec0c 543d e338 b53c

spatial_bn.running_mean f4 [32]
0.19805756 -0.18919381 -0.19336003 -0.10928438 0.2076084 0.0046114754 0.0047079106 -0.00692093
0.61304694 0.059967134 0.06639558 0.014131118 -0.08181779 -0.10761833 -0.25181627 -0.20179732
0.00013776784 0.090687215 0.004938872 -0.049149856 0.07254099 -0.05854928 0.23307994 0.33326262
-0.12355895 -0.21830577 -0.070624165 -0.16773064 0.017372305 -0.003773139 -0.15944506 -0.050539367
00000000: 9acf 4a3e 06bc 41be 2c00 46be 7dd0 dfbd
00000010: 4c97 543e dc1b 973b d144 9a3b f8c8 e2bb
00000020: a5f0 1c3f 19a0 753d 68fa 873d 3486 673c
00000030: 1690 a7bd 0067 dcbd 10ee 80be f5a3 4ebe
00000040: c675 1039 38ba b93d 43d6 a13b 5c51 49bd
00000050: 5f90 943d 5fd1 6fbd 82ac 6e3e 66a1 aa3e
00000060: 7a0c fdbd 8c8b 5fbe 67a3 90bd 95c1 2bbe
00000070: 5d50 8e3c c546 77bb 9145 23be 5e02 4fbd

spatial_bn.running_var f4 [32]
0.010353664 0.057136007 0.4172211 0.101184115 0.49605724 0.058253907 0.14045858 0.031780113
0.40260625 0.08859716 0.39039344 0.21446647 0.16551846 0.80346894 0.42479336 0.021262193
0.077478826 0.56979954 0.36720493 0.0773092 0.08350687 0.49196836 0.2931143 0.283844
0.5133437 1.1474882 0.20682101 0.049344625 0.013342755 0.07512278 0.9226795 0.38019782
00000000: 6aa2 293c 7207 6a3d 019e d53e 9e39 cf3d
00000010: 37fb fd3e a69b 6e3d 60d4 0f3e dd2b 023d
00000020: 6822 ce3e 6e72 b53d a6e1 c73e 199d 5b3e
00000030: ac7d 293e 24b0 4d3f 847e d93e 0d2e ae3c
00000040: 38ad 9e3d 62de 113f 4902 bc3e 4954 9e3d
00000050: a605 ab3d 47e3 fb3e 1413 963e 0054 913e
00000060: 7e6a 033f e5e0 923f e3c8 533e 971d 4a3d
00000070: 929b 5a3c f9d9 993d b934 6c3f 4aa9 c23e

separable_conv.weight f4 [32, 32, 1, 15]
0.0013408867 -0.019144284 -0.003666328 0.021636117 -0.037695788 0.0046924436 -0.047427792 0.00416615
0.009939439 -0.0015758065 0.009540865 -0.01712971 -0.011639305 -0.07256331 -0.05642245 0.01758219
0.049180944 0.034268524 -0.013957487 0.0386931 -0.0013408564 -0.00260771 -0.044074055 -0.014759648
0.017169211 -0.0064918697 -0.040608715 -0.006693951 -0.02495973 0.029109139 -0.0036285294 0.017775182
-0.010197201 0.008101611 0.033982556 0.04753952 0.020379981 0.059287194 0.036597542 0.042758547
0.0385161 0.041891187 -0.010564008 0.025840556 0.008579822 0.016249372 0.011903302 -0.003967371
0.040199343 -0.009796107 0.041211817 0.039622072 -0.011094621 0.043532938 0.016218785 0.023254057
0.03303382 -0.031149853 0.022541234 0.014285559 0.03829769 -0.012059285 0.0045989803 0.007633687
0.013561778 0.041442372 0.02818778 0.027250411 -0.0104872305 -0.0051530874 -0.013633043 -0.06275915
-0.067024104 -0.049034216 -0.0003828714 -0.02042534 -0.028636927 0.0027448284 0.009229323 -0.0024217574
-0.024899257 -0.019397952 0.03540189 0.03799415 0.046358213 0.06627861 0.03202306 0.03307692
-0.037695576 -0.047668535 0.05334072 -0.0046784393 0.013560999 0.040981073 0.032551963 0.031022584
-0.004075348 0.0028467085 0.029724548 -0.041721962 -0.03186865 -0.0042349813 -0.05211856 0.018758876
-0.042433802 0.015782066 0.012534492 -0.0025984745 -0.017460477 0.04110285 0.038883213 -0.0002996163
-0.004228414 0.049555466 -0.014381071 -0.010552473 -0.050894797 -0.05083199 -0.025060793 -0.0320081
-0.017080318 0.012540702 0.01418037 0.004348488 0.012450608 -0.009047994 0.019469554 0.022304578
-0.027103657 -0.04699517 0.0082014585 -0.00696452 -0.033264045 0.024647184 -0.032178078 0.038094815
0.026824303 -0.029364547 0.03387583 -0.032530647 -0.018627537 -0.004968801 -0.028139682 0.031329703
-0.016156044 0.0047152815 -0.049452078 0.016356796 -0.022748975 -0.035083994 0.016488578 0.027122676
0.037274648 -0.022187106 -0.011300426 0.0129814 0.016568555 0.027556518 0.04315425 0.0065586995
0.03267381 0.03814574 -0.004301929 0.027477896 0.0026317185 0.07477931 0.018040923 0.04458177
0.03636073 0.033572044 0.059180915 -0.0014239255 0.031529624 -0.0246193 0.013081598 -0.017723918
-0.056064375 -0.043858834 -0.053757023 -0.0029577776 -0.011691459 0.02339288 0.033821266 0.0033696683
0.018230494 -0.03733201 -0.007399897 -0.050346985 -0.027528029 -0.030511027 -0.014905496 -0.035488244
0.0011085301 0.024655152 0.0018448564 0.008606361 -0.01184422 0.04273054 0.011638328 0.039161317
0.052573364 0.042461324 0.04082181 0.031175934 -0.0065509933 -0.055385716 0.009323003 -0.04571396
-0.044730008 0.016431835 0.070659325 0.05122692 0.037984665 -0.004216955 0.020313252 0.04668271
0.023067059 0.020957766 0.020433871 0.007769524 0.032626025 0.0029075565 0.046193704 -0.024756638
-0.0015036782 0.046643022 0.026609996 0.031095844 0.02470684 0.01820971 0.016929083 -0.031399727
-0.06016576 -0.019817133 -0.042130798 -0.036244817 -0.045234594 -0.024984926 0.0006195823 -0.012421495
0.018045897 -0.0025216755 -0.019396689 0.0016862255 0.016094442 0.0075929686 0.043227788 0.0113996
0.02015289 0.0065489556 -0.016605858 -0.0086755855 -0.03162435 -0.037017286 -0.063255735 0.060568262
00000000: b1c0 af3a 79d4 9cbc c746 70bb 3a3e b13c
00000010: e666 1abd 12c3 993b a543 42bd 3384 883b
00000020: 07d9 223c 4b8b ceba 4a51 1c3c 9b53 8cbc
00000030: c9b2 3ebc 139c 94bd 3a1b 67bd 8608 903c
00000040: f571 493d 275d 0c3d f2ad 64bc a87c 1e3d
00000050: adbf afba 1de6 2abb ff86 34bd 73d2 71bc
00000060: 72a6 8c3c c0b9 d4bb 5355 26bd ee58 dbbb
00000070: 5978 ccbc 4a76 ee3c 9fcc 6dbb 429d 913c
00000080: 2912 27bc 9fbc 043c 4b31 0b3d cdb8 423d
00000090: ebf3 a63c 21d7 723d 4ee7 153d 9623 2f3d
000000a0: 0fc3 1d3d 1896 2b3d a914 2dbc 93af d33c
000000b0: 6292 0c3c 671d 853c 1106 433c b800 82bb
000000c0: 11a8 243d da7f 20bc b9cd 283d c14a 223d
000000d0: 37c6 35bc 984f 323d 42dd 843c 4b7f be3c
000000e0: 794e 073d fa2d ffbc 65a8 b83c fa0d 6a3c
000000f0: 0ade 1c3d 4f94 45bc 0bb3 963b 0224 fa3b
00000100: 3832 5e3c 7abf 293d 0fea e63c 413c df3c
00000110: a2d2 2bbc 3bdb a8bb 205d 5fbc df87 80bd
00000120: ef43 89bd 1ad8 48bd 21bc c8b9 0b53 a7bc
00000130: fd97 eabc 94e2 333b 9636 173c 59b6 1ebb
00000140: 87f9 cbbc 74e8 9ebc 9201 113d c19f 1b3d
00000150: 1ce2 3d3d 14bd 873d 9d2a 033d aa7b 073d
00000160: ad66 1abd 1540 43bd cc7b 5a3d 984d 99bb
00000170: f42e 5e3c c5db 273d 3555 053d 1323 fe3c
00000180: 7f8a 85bb d88f 3a3b e580 f33c a6e4 2abd
00000190: b488 02bd 99c5 8abb 457a 55bd 37ac 993c
000001a0: 11cf 2dbd 6449 813c 785d 4d3c 2b4b 2abb
000001b0: 4609 8fbc 765b 283d 0144 1f3d d215 9db9
000001c0: 828e 8abb acfa 4a3d 959e 6bbc 48e4 2cbc
000001d0: 1077 50bd 3435 50bd 4b4c cdbc ed1a 03bd
000001e0: 06ec 8bbc 8477 4d3c c854 683c c37d 8e3b
000001f0: a3fd 4b3c 0a3e 14bc 9d7e 9f3c 17b8 b63c
00000200: 7d08 debc 027e 40bd 695f 063c a136 e4bb
00000210: e13f 08bd e4e8 c93c 29cd 03bd 4f09 1c3d
00000220: a4be db3c eb8d f0bc 62c1 0a3d db3e 05bd
00000230: c798 98bc 53d1 a2bb 3185 e6bc 9353 003d
00000240: ae59 84bc a682 9a3b 438e 4abd b0fe 853c
00000250: 0f5c babc 3cb4 0fbd 0e13 873c 6030 de3c
00000260: 4dad 183d bcc1 b5bc 6c25 39bc f0af 543c
00000270: c7ba 873c 35be e13c 83c2 303d 5cea d63b
00000280: f9d4 053d b53e 1c3d 32f7 8cbb 5319 e13c
00000290: e978 2c3b e525 993d 8fca 933c 609b 363d
000002a0: fdee 143d d782 093d b067 723d 03a3 baba
000002b0: 3525 013d 6aae c9bc 3354 563c c031 91bc
000002c0: c2a3 65bd 52a5 33bd 5330 5cbd 46d7 41bb
000002d0: 898d 3fbc 6da2 bf3c 2b88 0a3d a7d5 5c3b
000002e0: 1e58 953c 73e9 18bd d67a f2bb a438 4ebd
000002f0: 7682 e1bc 43f2 f9bc 2e36 74bc 1f5c 11bd
00000300: 194c 913a 9af9 c93c 1ccf f13a b201 0d3c
00000310: 420e 42bc 3806 2f3d b0ae 3e3c 9e67 203d
00000320: 2b57 573d edeb 2d3d c534 273d ac64 ff3c
00000330: b7a9 d6bb 22dc 62bd 82bf 183c 903e 3bbd
00000340: d036 37bd 0e9c 863c d6b5 903d 52d3 513d
00000350: cf95 1b3d 622e 8abb fa67 a63c 5f36 3f3d
00000360: 21f7 bc3c 9faf ab3c ef64 a73c 7e97 fe3b
00000370: dea2 053d b48c 3e3b 9c35 3d3d 6fce cabc
00000380: 1117 c5ba c10c 3f3d 35fd d93c b6bc fe3c
00000390: 0066 ca3c 882c 953c dcae 8a3c 009d 00bd
000003a0: 5f70 76bd 8a57 a2bc 5891 2cbd 7275 14bd
000003b0: e947 39bd 30ad ccbc 776b 223a 8783 4bbc
000003c0: fdd4 933c b242 25bb cee5 9ebc 5704 dd3a
000003d0: 7ed8 833c 70ce f83b 9f0f 313d 63c5 3a3c
000003e0: ac17 a53c 9f98 d63b 0209 88bc 0b24 0ebc
000003f0: 8988 01bd 709f 17bd 398c 81bd 6d16 783d

separable_bn.weight f4 [32]
1.0777234 1.0938451 1.0817803 1.1137013 1.0996345 1.0007876 1.0788213 1.0973146
1.1412824 1.0728399 1.087625 1.0782695 1.1087277 1.098064 1.1014444 1.1080279
1.0875704 1.0911479 1.1077077 1.0911542 1.0865082 1.0363901 1.0852057 1.1125345
1.0930623 1.0977644 1.0730935 1.0019746 1.0318533 1.0844116 1.1015081 1.0967493
00000000: d7f2 893f 1e03 8c3f c777 8a3f c48d 8e3f
00000010: d3c0 8c3f cf19 803f d116 8a3f ce74 8c3f
00000020: 8b15 923f d152 893f 4c37 8b3f bc04 8a3f
00000030: caea 8d3f 5c8d 8c3f 21fc 8c3f dcd3 8d3f
00000040: 8235 8b3f bcaa 8b3f 5ec9 8d3f f1aa 8b3f
00000050: b312 8b3f 6ea8 843f 05e8 8a3f 8867 8e3f
00000060: 77e9 8b3f 8b83 8c3f 215b 893f b440 803f
00000070: c513 843f 00ce 8a3f 38fe 8c3f 4862 8c3f

separable_bn.bias f4 [32]
-0.014067555 0.062223163 0.06275085 0.08616399 0.07255216 -0.032689158 0.07698325 0.068038136
0.08083705 0.01806607 0.059704266 0.06086596 -0.017880471 0.0645322 0.059658792 0.10153615
0.06609519 0.07343084 0.022799406 0.06610593 0.06131041 -0.032809895 0.056862477 0.06566808
0.066336095 -0.0030582012 0.051501755 -0.03143078 -0.020572463 0.063300684 -0.038232885 0.07925552
00000000: 9a7b 66bc b7dd 7e3d 8583 803d bf76 b03d
00000010: 3a96 943d 11e5 05bd 65a9 9d3d 9457 8b3d
00000020: e58d a53d 4bff 933c 768c 743d 964e 793d
00000030: 117a 92bc 7529 843d c75c 743d 2ff2 cf3d
00000040: ea5c 873d e962 963d d2c5 ba3c 8c62 873d
00000050: a020 7b3d ab63 06bd a1e8 683d fc7c 863d
00000060: 38db 873d 1a6c 48bb 81f3 523d 90bd 00bd
00000070: 9587 a8bc caa3 813d 169a 1cbd b850 a23d

separable_bn.running_mean f4 [32]
0.2172977 -0.1139704 -0.7127101 -0.7165464 -0.6019242 0.18880887 0.60507804 -0.08891304
-0.3307717 0.89650154 0.07939727 0.3539974 0.073310964 -0.6429305 -0.06556915 -0.7257401
-0.5203518 0.474275 -0.14792253 0.4304141 0.37308067 0.5526664 -0.5348138 -0.5384995
0.23251572 -0.27084795 -0.7432155 -0.4114242 0.32669944 -0.45097718 -0.87611204 0.5112465
00000000: 4a83 5e3e 5069 e9bd 2b74 36bf 966f 37bf
00000010: b417 1abf 1d57 413e 65e6 1a3f 0a18 b6bd
00000020: e95a a9be 2081 653f 099b a23d 263f b53e
00000030: 0f24 963d 1897 24bf 1e49 86bd 1aca 39bf
00000040: c735 05bf 2cd4 f23e 0179 17be 3d5f dc3e
00000050: 6e04 bf3e 8c7b 0d3f 8fe9 08bf 1adb 09bf
00000060: 9a18 6e3e 95ac 8abe 5f43 3ebf 31a6 d2be
00000070: 2645 a73e 7be6 e6be e148 60bf 0de1 023f

separable_bn.running_var f4 [32]
0.3862053 0.3488966 0.19068408 0.23629515 0.23115295 0.35463658 0.2440517 0.29278427
0.49846143 0.22845721 0.3359632 0.31334072 0.3411432 0.34553954 0.38827044 0.19490285
0.2325326 0.34717977 0.3461896 0.2516307 0.31775603 0.2272031 0.29712743 0.4750156
0.35550073 0.18364833 0.23403478 0.34577027 0.32393906 0.4454774 0.37821618 0.23719472
00000000: b3bc c53e 93a2 b23e b042 433e 5bf7 713e
00000010: 5cb3 6c3e ed92 b53e b0e8 793e d2e7 953e
00000020: 5636 ff3e b0f0 693e 5e03 ac3e 326e a03e
00000030: 52aa ae3e 8fea b03e 62cb c63e 9d94 473e
00000040: 071d 6e3e 8cc1 b13e c33f b13e bdd5 803e
00000050: ebb0 a23e eea7 683e 1621 983e 3f35 f33e
00000060: 3104 b63e 4f0e 3c3e d0a6 6f3e cd08 b13e
00000070: 57db a53e 9d15 e43e 8da5 c13e 2ce3 723e

fc.weight f4 [5, 96]
-0.09475113 -0.066657454 0.05484297 -0.12347774 -0.01129914 0.16302122 0.1711543 -0.003795574
0.10497437 0.1347545 -0.017500415 0.08093286 0.012792301 -0.07230573 0.15097411 -0.13728163
0.007959162 -0.024175799 -0.0947795 0.1545197 0.0473474 0.0050907447 0.0538427 0.14977895
0.09517314 0.017287223 -0.12089894 -0.037206627 0.08276452 -0.07336316 -0.12604953 -0.011673963
0.15500689 -0.032850098 0.107566126 0.13261554 -0.077052146 -0.043055583 0.16374739 0.091474295
-0.0235149 -0.0018085869 -0.13768387 0.031684846 0.16857603 0.112614356 -0.11197538 0.14971094
0.025603427 -0.02996526 0.14867723 0.0004807433 0.10372365 0.11463671 -0.124662004 -0.051448554
0.14664957 -0.04078011 0.12442197 0.13437533 -0.15639876 0.10879456 0.11110248 -0.18056363
0.06590661 -0.052333992 0.12503359 0.05690482 0.014081076 0.13556334 -0.026855592 -0.064354256
-0.080748506 0.12438077 0.14046326 -0.030408917 -0.096726134 0.08326974 0.1420393 -0.08440119
0.06940377 0.012687562 -0.06868167 -0.13597283 -0.14476082 0.0010392069 0.027336158 0.10181354
0.11135222 -0.055146743 0.109011844 -0.123612806 -0.085540354 -0.14112717 0.15823713 0.080245264
0.028564427 -0.12042717 -0.041566495 -0.04060064 0.036555905 -0.15567526 -0.045748603 0.0763335
-0.12282992 0.017320374 0.11303807 0.03462272 0.08143754 -0.0497637 -0.07273835 0.14434694
0.010449374 -0.1361795 0.13355464 -0.0841496 -0.070605956 0.03697039 0.059320442 -0.10957541
-0.075079165 -0.013982675 0.034128338 0.08055672 -0.07734839 -0.0743709 0.05567128 0.02881038
-0.110873185 0.15684885 -0.14267457 -0.02287843 0.123963445 0.010809482 -0.022900188 -0.05093597
-0.050299827 0.10751557 0.043872185 0.06079851 0.031574436 -0.15861122 0.112648085 -0.0318286
-0.08063009 -0.035046764 -0.07569314 0.13669002 0.020270487 -0.08501009 -0.00040058076 -0.07029292
-0.1168633 0.034083657 -0.15705551 -0.14628832 -0.017505385 -0.024310902 -0.024006242 0.096553706
0.023332542 0.0024571258 -0.11435728 0.05782437 -0.027985318 0.021651383 -0.060344655 -0.014952413
0.024009695 -0.102902785 -0.07257821 -0.030283546 0.042983733 -0.08325912 -0.13236472 -0.04761634
-0.09701582 -0.16741435 -0.096334934 0.12808082 0.102947295 0.0024243267 0.008026862 -0.0348735
-0.06734928 0.054196194 -0.10212323 0.08139697 0.051956434 -0.043507785 -0.059664432 -0.15076715
0.13297048 -0.013314875 -0.06556884 -0.0033877327 -0.009631442 -0.06114871 -0.051240798 -0.060164087
-0.11118759 -0.13982487 -0.04347007 -0.13254508 -0.09669042 0.10489953 -0.16975668 0.030677184
-0.043002337 -0.08195143 -0.000543146 0.008219854 -0.08600397 0.024673464 0.06311314 -0.112559445
-0.07616734 0.04717104 0.057342496 0.0047705835 0.029125404 -0.09491565 -0.058005966 -0.083087705
-0.053605758 0.14960288 -0.1291895 -0.11065234 0.1635245 0.042692382 -0.026077632 -0.17147839
0.054281935 0.03426856 -0.009415179 0.04499603 -0.14613238 -0.041563842 -0.03359126 0.010821482
-0.0034632008 -0.023831159 -0.017387317 0.13290109 -0.05396561 0.0012208513 0.02488708 -0.07957771
-0.12774813 -0.061172403 0.073010206 -0.07630075 -0.012243066 -0.1335562 0.0024804312 0.08040326
00000000: e10c c2bd b483 88bd 06a3 603d e6e1 fcbd
00000010: 0720 39bc 09ef 263e 1343 2f3e 2abf 78bb
00000020: cdfc d63d 15fd 093e 085d 8fbc 21c0 a53d
00000030: cd96 513c 0715 94bd f598 1a3e 8e93 0cbe
00000040: 2567 023c 530c c6bc c11b c2bd 6a3a 1e3e
00000050: 59ef 413d 43d0 a63b 2a8a 5c3d a75f 193e
00000060: 23ea c23d ef9d 8d3c dd99 f7bd fa65 18bd
00000070: 7280 a93d 6d3f 96bd 2113 01be 2644 3fbc
00000080: 20ba 1e3e d38d 06bd a14b dc3d 5ecc 073e
00000090: 84cd 9dbd 0d5b 30bd 65ad 273e e056 bb3d
000000a0: 52a2 c0bc 1b0e edba 00fd 0cbe f8c7 013d
000000b0: 329f 2c3e 5ba2 e63d 5953 e5bd d34d 193e
000000c0: 47be d13c b479 f5bc d83e 183e 460c fc39
000000d0: 116d d43d a7c6 ea3d cb4e ffbd b8bb 52bd
000000e0: 4e2b 163e 0b09 27bd f2d0 fe3d b099 093e
000000f0: ff26 20be afcf de3d b289 e33d ace5 38be
00000100: 0bfa 863d 2b5c 56bd ce08 003e 0715 693d
00000110: 50b4 663c 1ed1 0a3e 4200 dcbc 2acc 83bd
00000120: 795f a5bd 58bb fe3d 9ad5 0f3e 1f1c f9bc
00000130: 5a18 c6bd 5389 aa3d c072 113e 88da acbd
00000140: 9023 8e3d 7edf 4f3c faa8 8cbd 763c 0bbe
00000150: 2e3c 14be ff35 883a 14f0 df3c 9e83 d03d
00000160: a20c e43d 8de1 61bd 9a41 df3d b628 fdbd
00000170: c82f afbd a483 10be ea08 223e a157 a43d
00000180: f2ff e93c 85a2 f6bd a141 2abd db4c 26bd
00000190: a5bb 153d 5669 1fbe e362 3bbd bd54 9c3d
000001a0: 418e fbbd 75e3 8d3c 8180 e73d 8ed0 0d3d
000001b0: bac8 a63d 06d5 4bbd d8f7 94bd afcf 133e
000001c0: da33 2b3c a472 0bbe 8cc2 083e a056 acbd
000001d0: db99 90bd 436e 173d fef9 723d 1369 e0bd
000001e0: 1bc3 99bd 9717 65bc 28ca 0b3d ecfa a43d
000001f0: d568 9ebd c54f 98bd 9107 643d bf03 ec3c
00000200: 7b11 e3bd fc9c 203e 4819 12be 8c6b bbbc
00000210: 8ce0 fd3d 411a 313c 2d99 bbbc 3ca2 50bd
00000220: 3107 4ebd 2031 dc3d 52b3 333d dc07 793d
00000230: 3254 013d fb6a 22be 0ab4 e63d b55e 02bd
00000240: 6321 a5bd 328d 0fbd 0105 9bbd 78f8 0b3e
00000250: 4b0e a63c c519 aebd 0a05 d2b9 bcf5 8fbd
00000260: 0756 efbd 4e9b 0b3d 29d3 20be 9bcc 15be
00000270: 7467 8fbc a827 c7bc bda8 c4bc f3bd c53d
00000280: e323 bf3c bb07 213b 2634 eabd 3fd9 6c3d
00000290: 7741 e5bc 3e5e b13c f52b 77bd f7fa 74bc
000002a0: fbaf c43c b2be d2bd e2a3 94bd 3315 f8bc
000002b0: b60f 303d c283 aabd 9e8a 07be 5a09 43bd
000002c0: 3bb0 c6bd ab6e 2bbe 404b c5bd 9e27 033e
000002d0: 08d6 d23d 74e1 1e3b 1983 033c 84d7 0ebd
000002e0: 6bee 89bd d4fc 5d3d fc25 d1bd 74b3 a63d
000002f0: 45d0 543d 3835 32bd b162 74bd b462 1abe
00000300: 6a29 083e a226 5abc f548 86bd b904 5ebb
00000310: 32cd 1dbc 1277 7abd dfe1 51bd 9e6e 76bd
00000320: 52b6 e3bd 402e 0fbe ac0d 32bd e6b9 07be
00000330: a005 c6bd 91d5 d63d b2d4 2dbe b84e fb3c
00000340: 3823 30bd 27d6 a7bd e961 0eba 91ac 063c
00000350: d922 b0bd 0120 ca3c 7641 813d 9185 e6bd
00000360: 9ffd 9bbd 6c36 413d f7df 6a3d 8e52 9c3b
00000370: 6698 ee3c 2363 c2bd aa97 6dbd e329 aabd
00000380: b691 5bbd 7f31 193e 414a 04be b29d e2bd
00000390: f772 273e 35de 2e3d c2a0 d5bc 0898 2fbe
000003a0: bc56 5e3d 315d 0c3d 1f42 1abc c24d 383d
000003b0: baa3 15be d93e 2abd fd96 09bd 964c 313c
000003c0: def6 62bb 9039 c3bc d96f 8ebc 3917 083e
000003d0: 0b0b 5dbd f904 a03a fddf cb3c a3f9 a2bd
000003e0: 68d0 02be ea8f 7abd 6086 953d 9143 9cbd
000003f0: 2497 48bc f5c2 08be bb8e 223b 77aa a43d

fc.bias f4 [5]
0.12437736 -0.14231336 -0.10323902 -0.04218436 0.036426015
00000000: 8fb9 fe3d 98ba 11be fb6e d3bd 82c9 2cbd
00000010: 7233 153d
